…
        "colab": {
          "base_uri": "https://localhost:8080/"
        },
        "id": "iDc10jWaFt9G",
        "outputId": "15d6a762-2ae1-40d6-cc1c-ce78532bbbfb"
      },
      "execution_count": null,
      "outputs": [
        {
          "output_type": "stream",
          "name": "stdout",
          "text": [
            "----------------------------------------------------------------\n",
            "        Layer (type)               Output Shape         Param #\n",
            "================================================================\n",
            "            Conv2d-1         [-1, 64, 224, 224]           1,792\n",
            "              ReLU-2         [-1, 64, 224, 224]               0\n",
            "         MaxPool2d-3         [-1, 64, 112, 112]               0\n",
            "            Conv2d-4        [-1, 128, 112, 112]          73,856\n",
            "              ReLU-5        [-1, 128, 112, 112]               0\n",
            "         MaxPool2d-6          [-1, 128, 56, 56]               0\n",
            "            Conv2d-7          [-1, 256, 56, 56]         295,168\n",
            "              ReLU-8          [-1, 256, 56, 56]               0\n",
            "            Conv2d-9          [-1, 256, 56, 56]         590,080\n",
            "             ReLU-10          [-1, 256, 56, 56]               0\n",
            "        MaxPool2d-11          [-1, 256, 28, 28]               0\n",
            "           Conv2d-12          [-1, 512, 28, 28]       1,180,160\n",
            "             ReLU-13          [-1, 512, 28, 28]               0\n",
            "           Conv2d-14          [-1, 512, 28, 28]       2,359,808\n",
            "             ReLU-15          [-1, 512, 28, 28]               0\n",
            "        MaxPool2d-16          [-1, 512, 14, 14]               0\n",
            "           Conv2d-17          [-1, 512, 14, 14]       2,359,808\n",
            "             ReLU-18          [-1, 512, 14, 14]               0\n",
            "           Conv2d-19          [-1, 512, 14, 14]       2,359,808\n",
            "             ReLU-20          [-1, 512, 14, 14]               0\n",
            "        MaxPool2d-21            [-1, 512, 7, 7]               0\n",
            "           Linear-22                 [-1, 4096]     102,764,544\n",
            "             ReLU-23                 [-1, 4096]               0\n",
            "          Dropout-24                 [-1, 4096]               0\n",
            "           Linear-25                 [-1, 4096]      16,781,312\n",
            "        Dropout2d-26                 [-1, 4096]               0\n",
            "           Linear-27                    [-1, 2]           8,194\n",
            "================================================================\n",
            "Total params: 128,774,530\n",
            "Trainable params: 128,774,530\n",
            "Non-trainable params: 0\n",
            "----------------------------------------------------------------\n",
            "Input size (MB): 0.57\n",
            "Forward/backward pass size (MB): 125.14\n",
            "Params size (MB): 491.24\n",
…
